models/deep_q_blackjack.pt (torch, 3585 bytes, 6 tensors)

net.0.weight f4 [10, 3]
0	0x3d8382fb	0.06421467
1	0xbf1e7614	-0.6189892
2	0xbf2ff0c9	-0.68726784
3	0x3e96464d	0.2935051
4	0x3d1bf22a	0.038072743
5	0xc04d2f01	-3.205994
6	0xbcb952a7	-0.02262242
7	0x3da0d813	0.07853713
8	0xc01a686a	-2.412623
9	0xbf12736a	-0.5720736
10	0x3e4356e8	0.19076121
11	0x3df03f11	0.11730779
12	0xbd0bd5f2	-0.03413958
13	0xbfc1ebee	-1.5150125
14	0xbf08ccd3	-0.53437537
15	0x3f818fe2	1.0122035
16	0xbf59e5e0	-0.85116386
17	0x408a1422	4.3149576
18	0x3ee98f99	0.4561737
19	0xbff7ea55	-1.9368387
20	0x3ecc342e	0.3988356
21	0x3c9296c2	0.017894153
22	0xbe752c75	-0.2394274
23	0x3e01eba4	0.12687546
24	0xbd1aea0c	-0.03782086
25	0xbeb32cb8	-0.34995055
26	0x3ee17b5a	0.44039422
27	0x3f75b1be	0.9597434
28	0xbb81c71c	-0.0039605033
29	0xc0cb0515	-6.3443704

net.0.bias f4 [10]
0	0xbfa2056e	-1.2657907
1	0xc0d670bc	-6.7012615
2	0xbf80d7b3	-1.0065826
3	0xbe98bb25	-0.2983028
4	0x3fd210b7	1.6411351
5	0xc0bc2382	-5.8793344
6	0x40620c80	3.532013
7	0xbeda8a42	-0.42683607
8	0xbe0e7a3f	-0.1391382
9	0xc124010e	-10.2502575

net.2.weight f4 [5, 10]
0	0x3e1f4309	0.15552916
1	0xbef2fc95	-0.4745833
2	0xbeb01660	-0.3439207
3	0x3d3e52df	0.04646575
4	0x3dffe489	0.124947615
5	0xbe56d94a	-0.20981327
6	0xbd763aa2	-0.06011451
7	0x3daad612	0.08341612
8	0xbd760f95	-0.060073454
9	0xbe21c56c	-0.15797967
10	0x3dd73cb1	0.10509623
11	0x3e249eb4	0.16076165
12	0x3e0f3173	0.13983707
13	0xbe0374dc	-0.12837547
14	0xbf027034	-0.5095246
15	0x3f1bdc45	0.6088298
16	0xbed3b92d	-0.41352215
17	0x3d6838b8	0.056694716
18	0xbe535613	-0.20638303
19	0x3f0d2ded	0.551482
20	0xbe19c723	-0.15017371
21	0xbe6cf449	-0.23140062
22	0xbe384179	-0.17993726
23	0x3e7490ca	0.23883358
24	0x3cf426d0	0.029803663
25	0xbf0ae83b	-0.54260606
26	0xbd3d3449	-0.04619244
27	0xbe8cc05a	-0.27490503
28	0x3e6aa9b6	0.22916302
29	0xbe192e85	-0.14959152
30	0x3d1e5584	0.038655773
31	0x3d2ef5c1	0.042714838
32	0x3dd78573	0.105235
33	0xbe15d75b	-0.14632933
34	0xbe390f54	-0.18072253
35	0xbea7b519	-0.32755354
36	0x3e9a417e	0.30128092
37	0x3cbe6388	0.02324082
38	0xbe860027	-0.2617199
39	0x3ec1469f	0.37749192
40	0xbd09feaf	-0.03369015
41	0xbebdea87	-0.37092993
42	0xbe3d18d1	-0.18466498
43	0x3e01e1a1	0.12683727
44	0x3c940c20	0.018072188
45	0xbde90b00	-0.11379051
46	0xbdbc598f	-0.091967694
47	0xbe24ee8d	-0.16106625
48	0xbde26352	-0.110541
49	0xbec1ce4f	-0.37852713

net.2.bias f4 [5]
0	0xbd1d6fef	-0.038436826
1	0xc0b780a7	-5.7344546
2	0xbeb0429d	-0.34425822
3	0xbce8fb4f	-0.028440146
4	0xbf0e6705	-0.55625945

net.4.weight f4 [2, 5]
0	0xbe094c92	-0.13408116
1	0x3e9a3b10	0.30123186
2	0x3e40abe1	0.18815567
3	0xbdf4da7b	-0.11955734
4	0xbd81400a	-0.063110426
5	0x3c868080	0.016418695
6	0x3c1aa885	0.009439592
7	0x3e990e9f	0.29893968
8	0xbeb992f4	-0.3624493
9	0xbdc5dfed	-0.09661851

net.4.bias f4 [2]
0	0xbec2cb08	-0.38045526
1	0x3c8a6965	0.01689596
